Unsupervised_Pretraining/model_init/savedmodel.npz (npz, 9730 bytes, 6 tensors)

arr_0 f4 [32, 14]
00000000: 2410 a33b 6039 863d 3673 323d 6205 483d
00000010: 3426 5fbc f933 543c 4ad1 603d 0204 583c
00000020: 1939 18bb 87d9 e9bb 292b dd3c d5a1 3dbc
00000030: 1edf ccbc ae80 99bb a28a 463d c3cb 0d3d
00000040: 76a3 b9bb 81e2 a03b 29cf 913c 5287 9d3d
00000050: b983 993d 6694 573b 20ed f23c 3895 d6bb
00000060: 9906 073d 1b1d ae3c 1950 d93c bbc9 34bd
00000070: 31d8 be3b ea89 d23d 3272 f5bb f2a6 d03b
00000080: 4fd3 8f3d fdb0 3ebc ec37 873d 5973 763d
00000090: 6851 a73c 4c6d f6bc 2a32 fb3b d3b9 92bb
000000a0: 3698 09bd b537 a73c 5e9f e53d f01a ca3d
000000b0: f150 03bc be4f 2c3d 1c5b 583d 5866 9b3d
000000c0: 8903 cb3d 38fa 593d 1cc1 47bd 73dc 93bc
000000d0: 2a6a 39bc 9618 0e3d a89e 213d 676f f13c
000000e0: 4d77 123d 5a3d eb3d d09f 0c3d 3ce4 15bb
000000f0: c681 c5bb b807 a03d 73c5 af3d 7628 873c
00000100: 8c2a 393d fb1a 12bd 1962 7abc cece 38bc
00000110: 92cd d53c 9905 123c 3584 19bd db38 6e3c
00000120: e5ff 80bc d283 ecbb 9277 513c b3d9 13bd
00000130: 2edf 043c e8cf eebc 04f6 8fbc c819 71bc
00000140: bd4d 8e3a 4713 023d 7233 fb3c d4e8 49bd
00000150: 931a 613d 283c bf3c 9e51 8abc f087 40bd
00000160: 2bad 51bd 05ee bdbc 8bb7 adbb 775a b8bd
00000170: 134a 513c dd2f ec3c 2cba 4abd e8ea b6bc
00000180: 9c58 c7bc fcf8 953c e3ab 923d 2bd3 b43c
00000190: 2354 b6bb fc53 24bc 3285 d1bc f6a1 83bc
000001a0: d1c9 b93a c082 723d 881a 60bd 9213 2e3d
000001b0: be09 04bd 746f 973c 30b7 90bc 0a5b 42bc
000001c0: 3237 fb3d afe3 7e3d a66c 5f3c 1472 8b3d
000001d0: 1255 fe3d f2cf c93d 1bdf de3d 140a 313d
000001e0: 0aac 04bd 407a a13b ecff 34bc 4be4 383d
000001f0: 13fe 683b 3e04 b13c 08ac d83d bea1 a73d
00000200: 4cbe 0e3d 654a bc3c 9fb7 583d ab1b 303d
00000210: 5f65 aa3d 41bb ba3c b8ae 693a 4324 793c
00000220: 50b1 1e3d 2749 61bb 8535 a63c e2b9 873b
00000230: da0a aebc 48e5 e73b d01b 603c 168d b8bb
00000240: 99ba d5bc e237 ecbc 1949 0d3c 4b3f 1dbd
00000250: 75f4 38bc c88c e23c a35e 27bb 9e76 363c
00000260: 3222 223b 4995 823b 1bf3 a9bc bfe5 16bd
00000270: 4505 893c ac9d 01bd aaec 8dbb 0b4e 2fbd
00000280: 4e4f 9c3c fed2 89bc 2e84 a8bc 5dd7 35bd
00000290: 4967 153d b95f 6abb dc0a 82bc 4b97 203d
000002a0: 9e67 89bb afd3 42bc 7122 bbbb 24f9 85bb
000002b0: d81e 883c 0482 533c ddf5 87bc 1935 3e3b
000002c0: 7df9 36bd 744a 103d 726a 05bd 2f18 9bbb
000002d0: 683d 78bc 5087 55bb ac44 aebc d4b1 373c
000002e0: 35d8 3bbd bc92 f83c 9b05 083c 1ac7 0abd
000002f0: 3398 8fbb b2d3 62bd 85de 133b 721c 04bc
00000300: 1b16 9c3c 3857 37bd 3738 2a3d 262a 563c
00000310: 8321 0cbd 91ea c3bc 81b3 513d f178 863a
00000320: 77dc 3abc 9129 2fbd 8288 80bc 32ad b03b
00000330: de5c 7e3b 930c cb3c a8bf e83c 719c d1bb
00000340: 9eed ef3c 555c 2d3d ccba 013e b90a 0d3e
00000350: 5027 6d3b 7d2b 453d 6980 353d fab0 e53d
00000360: 7491 c43d ec54 fd3c 949f f83c 4725 083c
00000370: 0f05 bebc 008f 6e3c 43f5 4b3d 12a9 953c
00000380: f7f0 3c3d 0658 9c3c 4221 a83b 330c ef3c
00000390: 1b13 8f3d 0d96 003d e224 dc3c 784c 5d3d
000003a0: 8791 a73b 7249 6c3b eff3 003c cfff 253d
000003b0: 1382 22bd ed07 0c3c fe2e 583c e9c6 95bc
000003c0: d401 cc3c 64b0 943c 465c 76bc 1f5e 01bc
000003d0: 7185 d4bc 623e 043d edca c63a 7201 913b
000003e0: 8c82 69bc 06a0 5d3d f47c 483c e879 24bc
000003f0: b5fc 47bc cd43 3fbd f764 c0bb f1eb 553c
0.0049762893 0.06553912 0.043566905 0.04883326 -0.013619948 0.012951844 0.054887094 0.013184549
-0.0023227392 -0.007136527 0.02699812 -0.011574228 -0.025008734 -0.0046845293 0.048472054 0.03461815
-0.005665238 0.004909814 0.017798977 0.07691826 0.07495827 0.003289485 0.029654086 -0.00654855
0.032965276 0.021254113 0.026527451 -0.044137698 0.005824112 0.10280211 -0.00749042 0.0063675577
0.07022726 -0.011638877 0.06602463 0.060168598 0.02042456 -0.030081414 0.007665892 -0.0044777184
-0.033592425 0.020412305 0.112120375 0.09868419 -0.008014903 0.042068236 0.052821264 0.0758788
0.09912784 0.053217143 -0.048768148 -0.018049454 -0.011316815 0.034691416 0.039457947 0.029472066
0.035758305 0.11486311 0.034332097 -0.0022871634 -0.006027433 0.07813972 0.08582582 0.016498785
0.04520659 -0.03567026 -0.015282177 -0.011279775 0.026099 0.008912467 -0.037479598 0.014539923
-0.01574702 -0.0072178626 0.012784855 -0.036096286 0.008109851 -0.029151872 -0.017573364 -0.014715619
0.0010856908 0.031756666 0.03066418 -0.049294308 0.054956984 0.023344114 -0.016884621 -0.04700464
-0.051190536 -0.023184786 -0.005301421 -0.0900163 0.012774008 0.028831417 -0.049493954 -0.022328809
-0.024334244 0.018307202 0.07161691 0.022073349 -0.005564229 -0.010029789 -0.025576208 -0.01606844
0.0014174526 0.059206724 -0.054712802 0.042499132 -0.032235853 0.018485762 -0.017665476 -0.011862526
0.12266387 0.062228855 0.013636744 0.06808868 0.124185696 0.098541155 0.10882398 0.043222502
-0.03239063 0.0049279034 -0.011047345 0.045139592 0.003555183 0.021608468 0.10579687 0.08185147
0.03484945 0.022984693 0.05290949 0.042995136 0.08320116 0.022794368 0.000891428 0.015206399
0.038743317 -0.0034375878 0.020289192 0.004142032 -0.021245409 0.007076893 0.013678506 -0.005632053
-0.026089953 -0.02883524 0.008623385 -0.03839044 -0.011288752 0.02765502 -0.0025538586 0.011136679
0.002473962 0.0039850813 -0.020745805 -0.036840197 0.016726146 -0.03164451 -0.004331191 -0.042799037
0.019080784 -0.016824242 -0.02057084 -0.04439484 0.036475454 -0.0035762622 -0.015874319 0.039206784
-0.0041932603 -0.01189129 -0.005710893 -0.004088538 0.01661627 0.012909416 -0.016596729 0.0029023348
-0.044671524 0.035227254 -0.032572217 -0.0047331075 -0.015151359 -0.0032581873 -0.02127298 0.011211831
-0.045860488 0.030343406 0.008302118 -0.033881284 -0.004382157 -0.05537767 0.0022563052 -0.0080634225
0.01905351 -0.044760913 0.041557517 0.013071572 -0.034211647 -0.02391556 0.05119658 0.0010259432
-0.011405102 -0.04276425 -0.015690092 0.0053917402 0.0038812677 0.02478627 0.028411701 -0.006396823
0.02928811 0.042324383 0.12668914 0.13773622 0.0036186762 0.048137177 0.044311915 0.11215396
0.095980555 0.030924283 0.03034953 0.008309669 -0.023195772 0.014560461 0.049794447 0.018269096
0.04612824 0.019084942 0.0051309178 0.029180622 0.06986066 0.0313931 0.026873056 0.054028004
0.0051137838 0.003605452 0.007870658 0.04052716 -0.03967483 0.0085468115 0.013194798 -0.018283324
0.024903215 0.018150516 -0.015036648 -0.007895975 -0.025942536 0.032286055 0.0015166678 0.004425221
-0.014252316 0.05410769 0.012236822 -0.01003883 -0.012206246 -0.04669552 -0.005871411 0.013056741

arr_1 f4 [32]
00000000: 0b41 3c3d 0c66 523d 14b8 523d 4114 903d
00000010: 5168 8b3d f988 1d3d d72e 413d 850d d53c
00000020: 8649 a63d bf4f 8b3d ad55 1a3d 3353 db3c
00000030: 6661 b83c 8acc 283d 0ed6 bb3c 67f1 bc3d
00000040: 469f 163d bb40 d83c 27ef ff3c 38da d13c
00000050: 0137 a33d bd7e 8c3d 3097 523d 1e7e d23c
00000060: 66a9 e93c 0539 683d ab8c ef3c 3220 e83c
00000070: fd38 603d ed4c ca3c b2d0 a43d 5aef 633d
0.045960467 0.05136685 0.05144508 0.07035113 0.06807006 0.038460705 0.04716381 0.026007423
0.08119492 0.0680232 0.037679363 0.02677307 0.02250738 0.04121069 0.022929218 0.09225731
0.03677299 0.026398053 0.031241966 0.02561675 0.079694755 0.06860111 0.051413715 0.025694903
0.028523158 0.056695003 0.02924188 0.028335664 0.05474185 0.024694884 0.08047618 0.055648185

arr_2 f4 [32, 32]
00000000: c649 63bb d3c0 e0bb 2e33 813c 5003 3e3d
00000010: f88a c33c 820c f9bc 1d61 46bb 9860 1bbc
00000020: b066 a83c 9b4c 5b3d 3381 753b d526 16bb
00000030: 1024 db3a 5516 6d3b 46a9 d639 7c09 873c
00000040: a5c7 fd3c f357 ed3c 5b7c fe3b 36c4 633c
00000050: 4553 4b3d 25ec 133c 7bc5 f83c d821 e73b
00000060: d749 723c d3e3 2c3d f0e4 3b3c 58fd a1bc
00000070: 15ac b43b f40f 9c3c cc8d 233d 445c 0e3c
00000080: 9df3 d1ba 15ae 103c 29cf e9ba 791a d23b
00000090: 57ac a43b 1d97 74ba d3d2 16bc d8c4 13bb
000000a0: df15 223d 0cbd 1a3d ae29 aabb 257d 743c
000000b0: 8639 58bc c41b b4bb 987e 5f3c 7bdb 623c
000000c0: c4a5 a83c 3340 0abb 40c7 29bc b8f8 433c
000000d0: 2135 c93c 24b6 3f3c 6e89 31bc 123f 3cbc
000000e0: 63f0 78bc 47f7 913c 4cfe d7bc 6645 d33b
000000f0: 7bcf a0b9 25de febc 49e6 f1bb fe04 af3c
00000100: 0f8f db3c a911 193d a01e 903c 8c99 3a3d
00000110: 3ee1 d63c 46c3 af3c 6b1f ce3a 37fa c13b
00000120: e302 4b3d 5fb5 463d 1795 15bb 7545 393c
00000130: e938 92bc a0b4 d93c ef6d c23b 19b6 583d
00000140: d4cb 473d bb0c aaba 8ae5 a6bc f666 f73a
00000150: 3648 463d fcd9 3c3d 340e 353d 065c 5a3b
00000160: c985 9c3c 394d 293d 323a b93b 20dc a9bc
00000170: a775 0f3c 9e56 a3bc b49b 663d b604 e53c
00000180: 44ae 263c 1469 1c3c dd71 5f3d 6e86 3d3d
00000190: a5e1 da3c fa49 aa3c d603 56bc 021b 0a3d
000001a0: db30 1a3d b805 583d 7f1f 8ebb 7522 9dbc
000001b0: a997 31bb 54d1 13bd 465d 303c 556a 463d
000001c0: 9ae5 0a3d e740 ab3c 3d8f 7f3c 8c73 3d3c
000001d0: dde9 ab3d 9af6 a83c a5dc 483d 4545 433c
000001e0: d824 a63b 406d 0a3b 295c 9bbb 88e8 b8bc
000001f0: d2ec 113d fe62 c03b b372 423d b352 9d3c
00000200: 42ef c5bb 4eb4 163c 2d52 4dbc 0afa 0e3d
00000210: 0a0e 713b bc0d 28bc 19b0 623c 0dcc 0c3c
00000220: 572d 053c 5b2d 433b 2de1 20bc 90a5 823b
00000230: 599e bb3b 97f4 26bc 71fb c43b 4ac0 f03c
00000240: 73f0 403c 02b8 663c 52e7 5cbb 504d 043c
00000250: e872 03bb 2d0f 9b38 1098 853b 7643 5bbc
00000260: 93f1 99bc 42cc 70bb 12ae e73b 1b3b 9cbb
00000270: 3943 6b3b 91c5 033c 206d 353c 2201 1f3c
00000280: b7da 143c 652a 063c 34bf 963b ad28 e93c
00000290: be95 033d d3c6 8bbc aa36 07bc 7fc5 a0bc
000002a0: 0613 a63c efff 243d cd6a 5c3c 477d b5bc
000002b0: ad18 8fb8 165d 4c3b 806e 953c e33f 433d
000002c0: 1e5d 99bb c4c3 e83c fd22 31bc 372b 273c
000002d0: 9501 123d ec14 823b 7db8 fdbb d859 14bc
000002e0: ffb9 4cbc 9793 45bc 86ff e0bb 47a3 edbc
000002f0: c1e6 d1bc 2400 86bc 7785 cc3c 6b78 303d
00000300: 2b88 e9bb e95b 90bb f11e 86bc 0859 413c
00000310: 3229 a5ba 6613 babb f16a 233c f8fb e73c
00000320: 7c15 a2b9 6bb6 0cbc 09d2 423c 9582 a33b
00000330: b55b b63c 58f1 913c 59a7 26bc 9109 b2bc
00000340: 59f2 ffbc 820a 8cbc 807a 5d38 38ce 8e3c
00000350: df2f 07bd f1c0 363c b9bd f43c 040f 813c
00000360: dbb3 56bb a25b c5bc c021 39bb cbb4 5f3c
00000370: c852 693c 15df e6bb 80eb 243c ad9a 8b3c
00000380: 8472 ad3c 9c6f b4bc 4c74 dfbc f739 9ebb
00000390: b29d 05bb 24d0 533b f2a0 e6bb 0874 c03c
000003a0: ffeb 833b 592a 5fbc 178e dc3c 4db8 3fba
000003b0: e0b9 a73b c637 943b 94e3 b8bc 09ec d53c
000003c0: c8e3 5f3b 28ca 2d3b 0e96 a3bb 14e0 babc
000003d0: d2d9 e1bc 74b0 f437 256b 23bb 6dbd 22bb
000003e0: 1101 33bc 74e5 d8bc 53c3 bebc 9e69 4a3c
000003f0: de04 84bb e2e0 abbb 46fd 85bc 4036 49bc
-0.0034681424 -0.006858924 0.015771475 0.046389878 0.023869976 -0.030401472 -0.0030270286 -0.009483479
0.020556778 0.053539854 0.0037461042 -0.002291133 0.0016719121 0.003617664 0.0004094338 0.016484015
0.030978987 0.028972602 0.007766289 0.013901761 0.04963996 0.009028469 0.030367604 0.007053595
0.014788113 0.042209458 0.011468157 -0.019774124 0.005513678 0.019050576 0.03993015 0.00868899
-0.0016018037 0.008830567 -0.0017838228 0.006411847 0.0050254273 -0.0009330379 -0.009205538 -0.0022547748
0.03957164 0.037777945 -0.005192957 0.014922415 -0.013197308 -0.005496474 0.013641022 0.0138462735
0.020586856 -0.0021095395 -0.010362446 0.011961155 0.024561467 0.011701141 -0.010835988 -0.0114896465
-0.015194031 0.017818106 -0.026366375 0.006447482 -0.00030672163 -0.031111786 -0.0073821885 0.021364685
0.026801614 0.037370358 0.017592728 0.04555659 0.02623045 0.021455418 0.0015725916 0.0059197205
0.0495633 0.048512813 -0.002282446 0.011308064 -0.017849403 0.026575387 0.0059335153 0.052908037
0.04877837 -0.0012973765 -0.020373125 0.0018875289 0.04840871 0.046106324 0.044203 0.003331901
0.019106762 0.04133341 0.0056526894 -0.020734847 0.008756078 -0.019938763 0.056300834 0.027956348
0.010173384 0.009546537 0.054551948 0.04627078 0.026718924 0.020787228 -0.013062438 0.033717163
0.03764425 0.05273983 -0.0043372507 -0.01918147 -0.0027098453 -0.036088303 0.010764426 0.04844125
0.03391037 0.020904971 0.0155981155 0.011563193 0.08394215 0.020625401 0.049038548 0.011918371
0.00507031 0.0021122247 -0.004741211 -0.022571817 0.03562624 0.005871176 0.047472667 0.019204473
-0.0060404846 0.009198261 -0.012531799 0.034906425 0.003678205 -0.010257181 0.01383593 0.008593571
0.008128486 0.0029781673 -0.009819311 0.0039870217 0.0057256636 -0.010190151 0.0060114195 0.029388566
0.011776078 0.014081957 -0.0033707214 0.008075073 -0.0020057503 7.393803e-05 0.004076965 -0.013382783
-0.01879195 -0.003674284 0.0070703113 -0.004767788 0.0035898222 0.008042709 0.011073381 0.00970486
0.009085349 0.008188819 0.00460043 0.028461779 0.032125227 -0.01706258 -0.008252779 -0.019625423
0.020272743 0.04028314 0.013453198 -0.022154463 -6.8233676e-05 0.0031183413 0.018241167 0.04766835
-0.00468029 0.02841366 -0.0108115645 0.010203174 0.03564604 0.0039697792 -0.00774294 -0.009054624
-0.012495517 -0.012059114 -0.0068663983 -0.02900852 -0.025622727 -0.016357489 0.024965985 0.04308359
-0.007126828 -0.004405488 -0.016372176 0.011801012 -0.0012600778 -0.005678582 0.009974227 0.02831839
-0.00030915055 -0.008588414 0.011890897 0.004989932 0.022260526 0.017815277 -0.010171735 -0.021733077
-0.03124349 -0.017094854 5.2804593e-05 0.017432317 -0.033004638 0.011154399 0.029875623 0.01575423
-0.003276101 -0.024091545 -0.0028248876 0.013653944 0.014240928 -0.0070456364 0.010065913 0.017041529
0.02117277 -0.022025876 -0.027277134 -0.0048286873 -0.0020388183 0.0032320106 -0.007038229 0.023492828
0.0040259357 -0.013620936 0.026923222 -0.0007313535 0.0051185936 0.0045232503 -0.022569455 0.026113527
0.0034162868 0.00265182 -0.004992253 -0.022811927 -0.027569685 2.9169234e-05 -0.002493569 -0.0024832145
-0.010925547 -0.0264766 -0.023286497 0.012354283 -0.0040289005 -0.005245314 -0.016356122 -0.012281001

arr_3 f4 [32]
00000000: 79eb 403d dfa5 f93c 10d8 883d bef2 833d
00000010: cb7e c83c 35b8 0d3d 40c4 7c3c 3b6c 633c
00000020: c57a 3b3d bb80 713c ca4d 313d c97c cd3c
00000030: fc38 703c a7f3 8b3c c928 383c 08b4 c63c
00000040: e57c 0e3d d4a1 343d 4270 793c 917a 503c
00000050: 135a 733d ce86 723c 6c1e 613c 7ba3 6c3c
00000060: a69d 4e3d c5cb 823d a199 603d 3f18 603c
00000070: f003 c43c c6d0 1e3c eea3 3f3d 8c97 1d3d
0.047099564 0.030474601 0.06681836 0.06442784 0.024474522 0.0345995 0.015427649 0.013880785
0.04577138 0.014740164 0.043287076 0.025083916 0.014662024 0.017083956 0.011240193 0.024255767
0.034787077 0.044099644 0.015224518 0.012724535 0.059412073 0.014802648 0.013740163 0.014443274
0.050443314 0.06386522 0.054834012 0.013677656 0.023927659 0.00969333 0.046787195 0.038474604

arr_4 f4 [16, 32]
00000000: 6438 c0bd 2a50 08be f1b2 8b3e 3372 01be
00000010: 6cb6 d1bd c20e a5bd ca8f 183d a3d9 a03d
00000020: d361 293e 2b1a 9a3e 610a 5fbd 956f 0f3e
00000030: 2c09 c33d 38fa 94bc c633 11be 75cf 83bc
00000040: f07c 28be c878 c33e d2a7 ea3c e8ea 90be
00000050: 1dee 7ebe 748f 89be f190 89bc a5e8 773e
00000060: 9401 86be 1e9d 8abd da96 c63d caa8 5c3e
00000070: f794 043e c8d2 8bbd 135d a03e e0a2 bc3e
00000080: b2e7 ecbc 570c 523e 8dbb 023e 3743 a83d
00000090: 5321 9b3e 3716 803d 6c1e 9c3d 9726 f6bd
000000a0: b917 a4bd b7d3 1ebe 4d77 babd 051e 863e
000000b0: 3305 59be b190 f2be 7851 41be c2e9 d53e
000000c0: 507b c53e 7105 693e c62b 5dbc b80a bfbe
000000d0: c8af ba3d 868b dabe 0830 ecbd cd22 f73d
000000e0: a400 9f3e ea4a 8f3e 2e0c b33e 3b88 833e
000000f0: 3a86 5dbe 9211 6b3d 7a13 46bd dade d13d
00000100: 73f3 d83e 90fa 243e ff64 b73e 71b4 023f
00000110: ffef ffbd 62e8 4f3e c71f d5be d86b 833e
00000120: 98cc d13e d220 2f3e d600 073f f2d6 053f
00000130: e84c c63c 2a7d 0cbf ab1c e8bc ec85 1dbd
00000140: e112 bcbd f269 09be 660a 02bf 904b 893d
00000150: 1aba c13e 9b27 c03d d4f6 38be 6ae4 bbbe
00000160: f366 bb3d 25b6 053f 153f 15be c978 0cbd
00000170: 9867 e93d 9d06 693d 336f d63d 756b babc
00000180: 79d1 e73d 72a5 ec3e 130e ba3d ab76 863e
00000190: 80ee fd3d 6469 ec3e 5de0 70be 1440 173e
000001a0: ef2f 5b3e 264d 6f3d 1cfb cc3e c20f b13e
000001b0: a119 62be 14af bfbe 84c2 9d3c ff23 67be
000001c0: c987 a43e 2b7d 0ebe 233b eabc 6419 86be
000001d0: 86de 8b3b a47c c9be cf89 893e 557b 293e
000001e0: f4a4 ee3d 9c6a c6bd dfdb 16be 9cdb 893e
000001f0: b4a0 33be 065e 84be bb18 85bd 78e6 48be
00000200: d1ed 903e d68b 8e3d d371 b23e 2670 af3e
00000210: 987f db3e fe47 053f 976a 413d 97d0 eabd
00000220: 2c97 a83e 9288 0ebe 0740 8b3e 5098 dc3d
00000230: ea5e 243e a02b d33c aeee b4be b5d8 023e
00000240: de07 1ebe 6100 0e3e 6206 b23d 4d09 45be
00000250: 67c9 803e f5d7 8ebe e24f 5b3e f042 653d
00000260: 0c54 853e b8f6 313c b495 53bc 3a5e 22be
00000270: 28cd b43e 374f 5fbe 7903 b43d 841d 853c
00000280: 0db8 923e dd24 8dbd 3120 2bbb c4b8 ce3e
00000290: a73b 853e 56a9 b7bd 4174 20be 8efa 84be
000002a0: 7365 3a3e dc1c a33e 38e1 663e 996a 1c3e
000002b0: c2c2 72bd b0cd 3ebd f60e 76be fce5 923e
000002c0: 1d2b 413e b3d7 0a3e 65e3 d03d a24e 37be
000002d0: 023a e8bd 623d b2bd cbb5 923e 51eb dfbe
000002e0: d5d4 053f 6c01 9b3e 0042 b03e 8e83 a03c
000002f0: db2d a73c 9a0c ebbd d723 0d3d e087 cb3d
00000300: 89ac 73be 676e 263e 39bd 39be d7ba c23e
00000310: 742d 733e 0ebe 0bbe 2934 cabe fb56 b5bd
00000320: c477 c43e 9bd6 c6bd f229 1cbe 929c cf3c
00000330: 72dd 7abd 99a2 d73d b2e7 2d3e d5b7 59be
00000340: d25b e73d e486 23be 0f71 013e a84a 5a3e
00000350: 766a 8e3e 20e8 593e ede9 3abe 4519 c1bc
00000360: 26a8 62be de6e bdbd a4ab 923e ac28 19be
00000370: d1bc 143e b5dd 61be e029 663e bfd3 813e
00000380: 6197 e53e 83c8 0a3f b4b2 e33e 5623 20bc
00000390: d49a 78bd 0b1c df3d bb52 0abf 3fa2 c23d
000003a0: df59 7a3d f4ec 303e 817b cb3d 856c 883e
000003b0: e914 e5be cf09 a2be d6f7 55be 9d18 18be
000003c0: ba67 e33e a864 0b3f f597 4bbe cba8 cabe
000003d0: dcd3 fc3e 2775 40be 3209 5fbd f8a4 bebe
000003e0: 1ab0 163d f79b 1e3e 8d83 f33e 308e 52be
000003f0: 9b57 013e 4db6 493d 06df df3e 4558 383e
-0.09385756 -0.1331183 0.2728496 -0.1264122 -0.10239872 -0.080594555 0.037246503 0.07854011
0.16541223 0.3009809 -0.054453257 0.14007409 0.09523234 -0.01818572 -0.14179906 -0.016090134
-0.1645391 0.38178086 0.028644476 -0.2830422 -0.2489552 -0.2686726 -0.016792746 0.2420984
-0.2617308 -0.06768249 0.096967414 0.21548763 0.1294745 -0.06827313 0.3132101 0.36843014
-0.028919075 0.2051252 0.12766857 0.08215945 0.30298862 0.06254237 0.0762299 -0.12019079
-0.08012337 -0.1551045 -0.09104786 0.26194778 -0.2119339 -0.47376016 -0.18878734 0.41779906
0.38570642 0.22755982 -0.013499206 -0.37312865 0.09115559 -0.42684573 -0.11532599 0.120671846
0.31055176 0.27986842 0.3497023 0.25689873 -0.21633235 0.057389803 -0.048358418 0.10247584
0.42373237 0.16111207 0.3581924 0.5105658 -0.124969475 0.20303491 -0.41625807 0.25668216
0.40976405 0.17102364 0.5273565 0.52281106 0.024206594 -0.54878485 -0.028333982 -0.038457796
-0.09183288 -0.13419321 -0.50797117 0.067038655 0.37837297 0.09382554 -0.18062907 -0.36697704
0.091504954 0.52231055 -0.14574845 -0.034294877 0.11396712 0.056891073 0.10470428 -0.022756318
0.113192506 0.46219975 0.09084716 0.2626241 0.12399006 0.46174157 -0.23523088 0.14770538
0.21405004 0.058423184 0.4003533 0.34582335 -0.22080089 -0.37438262 0.019257791 -0.22572325
0.32134846 -0.13914935 -0.028592652 -0.26191247 0.00426847 -0.39352906 0.26862952 0.16550954
0.11652556 -0.09688303 -0.14732312 0.2692536 -0.17541772 -0.25852984 -0.064988576 -0.19619167
0.2830644 0.06960265 0.34852466 0.3426525 0.42870784 0.52062976 0.047220793 -0.114655666
0.32927835 -0.13919285 0.27197286 0.10771239 0.16051832 0.025777638 -0.35338348 0.1277798
-0.15432689 0.13867332 0.08692624 -0.19241829 0.25153658 -0.27899137 0.21417192 0.05597204
0.26040685 0.010862045 -0.01291411 -0.15856257 0.35312772 -0.21807562 0.08789725 0.016249426
0.28656045 -0.06891797 -0.0026111717 0.4037534 0.26022074 -0.08967845 -0.15669347 -0.25972408
0.18202762 0.31857955 0.22546852 0.15275039 -0.059267767 -0.046582878 -0.24029145 0.2869109
0.18864103 0.13558845 0.10199622 -0.1790109 -0.11339189 -0.08703114 0.28654322 -0.4373422
0.5227788 0.30274522 0.34425354 0.01959398 0.020407608 -0.11477013 0.034458008 0.099380255
-0.23796286 0.16253053 -0.18138589 0.38033172 0.23747808 -0.13646719 -0.3949292 -0.08854481
0.38372624 -0.097089015 -0.15250376 0.025343213 -0.061246343 0.1052906 0.16982916 -0.21261533
0.1129681 -0.15969425 0.12640785 0.21317542 0.27815598 0.21279955 -0.18253298 -0.02357162
-0.22134456 -0.09249662 0.28646576 -0.14956921 0.14525153 -0.22057231 0.22476912 0.25356862
0.44842055 0.54212207 0.44472277 -0.00977405 -0.06069453 0.10894021 -0.54032487 0.09503602
0.061120864 0.1727789 0.09935666 0.26645294 -0.44742516 -0.31648108 -0.20895323 -0.14853139
0.44415075 0.54450464 -0.19882186 -0.39581904 0.49380386 -0.1879469 -0.05445213 -0.37235236
0.036789037 0.15489183 0.47561303 -0.20562053 0.12631075 0.04924612 0.4372484 0.18002422

arr_5 f4 [16]
00000000: 6272 9a3c e28f 0a3c c52d c13c 491f 083c
00000010: 1170 673c 5940 3f3c f226 483c 985d de3c
00000020: fc0a ac3c 74d6 5b3c db92 243c e683 303c
00000030: 970b 5b3c fc67 053c b449 703c c523 633c
0.01885337 0.008457156 0.023581395 0.00830824 0.01412584 0.0116730565 0.012216317 0.027144238
0.021001332 0.013417829 0.010044779 0.010773635 0.013369462 0.008142468 0.01466601 0.013863509
