Unsupervised_Pretraining/model_init/savedmodel.npz (npz, 9730 bytes, 6 tensors)

arr_0 f4 [32, 14]
0	0x3d0c36f1	0.034232084
1	0x3d318c8a	0.04334692
2	0x3cbc9eb5	0.023024896
3	0x3c5a5471	0.013325796
4	0x3b3a92dc	0.0028468883
5	0x3d2d2aeb	0.042277258
6	0x3d9c6e85	0.076382674
7	0x3cbb4767	0.022861196
8	0x3c2a9ff0	0.010414109
9	0xbca00f0f	-0.01953843
10	0x3cc55fb2	0.024093483
11	0x3c9504fc	0.018190853
12	0x3add8300	0.0016900003
13	0x3bd69b3f	0.0065492685
14	0x3d562f71	0.052291337
15	0x3d09cf31	0.03364486
16	0x3ce20d2d	0.027594173
17	0x3d16dc17	0.036830988
18	0x3d39f16d	0.045396257
19	0x3cd45c12	0.025922809
20	0x3d4cd92c	0.0500118
21	0xbc6f5ab8	-0.014609031
22	0x3bd3cdef	0.006463758
23	0x392282b1	0.0001549821
24	0xba257e64	-0.0006313084
25	0x3d2250b4	0.039627746
26	0x3b678813	0.003532891
27	0x3d136068	0.035980612
28	0xbcc15889	-0.023601787
29	0xbc496e64	-0.012294386
30	0xb852b8bc	-5.023995e-05
31	0x3d1ea542	0.03873182
32	0xb8e3d42d	-0.00010863724
33	0xbbb5e6b8	-0.0055511855
34	0xbcc9b68b	-0.024623176
35	0x3b6cdaaf	0.0036141088
36	0xbccea705	-0.025226125
37	0xbbeef203	-0.0072920336
38	0xbc3f6d4a	-0.011683771
39	0x3cd11f64	0.025527664
40	0xbcc2ba46	-0.023770463
41	0xbc436ac8	-0.011927314
42	0x3d7f652e	0.06235235
43	0x3d9e5beb	0.07732376
44	0x3c8a88ac	0.016910873
45	0x3d907e08	0.070552886
46	0x3d8c623f	0.068546765
47	0x3dc1926c	0.09451756
48	0x3d628261	0.05530012
49	0x3d93c217	0.07214754
50	0x3c1030eb	0.008800725
51	0xbca8d441	-0.020609023
52	0xbc195469	-0.009358504
53	0x3cd701fa	0.02624606
54	0x3ce5b826	0.02804191
55	0xbc22b50d	-0.009930861
56	0x3e190026	0.14941463
57	0x3e1c0771	0.15237214
58	0xbc8f8b5b	-0.017522505
59	0x3d4cd3bf	0.050006624
60	0x3dca67fb	0.09883114
61	0x3e04bbfa	0.12962332
62	0x3dd7f976	0.10545628
63	0x3d8c48ad	0.06849799
64	0x3cc41864	0.023937412
65	0xbbe89e86	-0.0070989756
66	0xbcf2ba52	-0.02962986
67	0x3d07ced8	0.033156246
68	0x3c310d72	0.010806428
69	0xbc0531da	-0.008129561
70	0x3cfde463	0.030992692
71	0x3b34e6a2	0.0027603288
72	0x3caf26a2	0.021380726
73	0xbd12798f	-0.03576046
74	0x3c29be3d	0.010360298
75	0xbc5130a5	-0.012767945
76	0x3a95e658	0.0011436446
77	0x3aefc930	0.0018294211
78	0xbcfc413b	-0.030792823
79	0xbb9d2597	-0.004795741
80	0x3d56adbf	0.05241179
81	0xbcd3073d	-0.025760287
82	0xbca7b780	-0.020473242
83	0xbd0a9a4f	-0.033838566
84	0x3dd42741	0.103590496
85	0x3d8f43be	0.06995343
86	0xbb171574	-0.0023053559
87	0x3d72f349	0.059314046
88	0x3d879203	0.066196464
89	0xbbf22634	-0.007389808
90	0x3d900f32	0.07034148
91	0x3d542bbc	0.05179952
92	0xbca4c84f	-0.020115046
93	0xbb2cce77	-0.002636818
94	0x3d4be9cc	0.049783513
95	0x3d4a6cdd	0.049420226
96	0x3cbf5f62	0.023360912
97	0xba44dbd6	-0.0007509565
98	0x3d132829	0.03592697
99	0x3ddaa208	0.10675436
100	0xbb6a8421	-0.0035784321
101	0x3cfb4770	0.030673712
102	0x3d891629	0.0669368
103	0x3c1fc9c0	0.009752691
104	0x3d675fc2	0.056487806
105	0xbd687879	-0.056755517
106	0x3d150b08	0.036387473
107	0xbd07399c	-0.033013925
108	0x3bad0b53	0.005280891
109	0x3d3d2dcd	0.046186257
110	0xbc9577eb	-0.018245658
111	0x3bbe3e67	0.005805779
112	0x3d9aa314	0.07550636
113	0x3d7dcfe3	0.061965834
114	0x3c1f7f55	0.009734948
115	0x3d01f439	0.03172705
116	0x3d8a9046	0.06765799
117	0x3da736fa	0.08164783
118	0x3da304fe	0.079599366
119	0x3dabc71c	0.083875865
120	0xbbb8bb15	-0.0056375363
121	0x3cc1f354	0.023675598
122	0x3b269e5e	0.0025423984
123	0xbb9d44a2	-0.0047994414
124	0x3c64010f	0.013916268
125	0x3ccaab58	0.024739906
126	0x3d2a1f01	0.041533474
127	0x3c9d2a57	0.019185228
128	0x3d5b6a4c	0.05356817
129	0x3d1e25fd	0.038610447
130	0x3d0759f4	0.03304477
131	0x3cba4380	0.022737265
132	0xbc07f71c	-0.008298662
133	0x3cffb920	0.031216204
134	0x3c0c318a	0.008556733
135	0x39dba15a	0.0004189115
136	0x3cff6b3d	0.031179065
137	0xbcf0abc1	-0.029378774
138	0xbc4c4396	-0.012467286
139	0xbc0eda44	-0.008719031
140	0xbcc02ab9	-0.023457872
141	0x39e14ff8	0.00042974926
142	0xbc8925ac	-0.016741596
143	0xbc245658	-0.010030352
144	0xbceea558	-0.029131576
145	0x3b33c589	0.0027430973
146	0xbbc9df11	-0.006160625
147	0xbc9dd1c5	-0.019265065
148	0x3a302dbe	0.00067206833
149	0xbc5a4861	-0.013322921
150	0xbb24e692	-0.0025161845
151	0x3c4e264a	0.012582371
152	0x3b300153	0.0026856258
153	0x3c8eeec4	0.017447837
154	0x3db583e9	0.088630505
155	0x3be39476	0.006945188
156	0x3c50d964	0.012747142
157	0x3cb756e5	0.022380302
158	0xba1a3e32	-0.00058839016
159	0x3d4f1999	0.05056152
160	0xbbacd621	-0.0052745496
161	0xbd53d24a	-0.05171422
162	0xba24ad75	-0.00062819506
163	0xbcaff1ef	-0.021477668
164	0xbc244760	-0.010026783
165	0x3c873000	0.01650238
166	0xbb8b18bc	-0.004244892
167	0xbd285438	-0.041095942
168	0xbc8047b4	-0.01565919
169	0x3d0177ce	0.031608395
170	0x3ca64b69	0.02029963
171	0x3c593060	0.013256162
172	0x3c0f321f	0.008739977
173	0xbb802683	-0.003910841
174	0x3d2d3c8f	0.04229408
175	0x3d998387	0.0749579
176	0xbb34cf80	-0.00275895
177	0x3c7ddc75	0.015494456
178	0xbc816401	-0.015794756
179	0xbc04e1d6	-0.008110484
180	0xbc07d79d	-0.008291152
181	0x3cec52c5	0.028848061
182	0x3ad9d927	0.0016620503
183	0x3bdb70c9	0.0066967946
184	0x3d00efb1	0.031478588
185	0x3bad2e8c	0.00528509
186	0xbca5b49d	-0.020227725
187	0x3cd518b1	0.02601275
188	0x3b767bd7	0.0037610435
189	0x3d72f8f4	0.05931945
190	0x3cb00c03	0.021490103
191	0x3d02a423	0.031894814
192	0x3d46161e	0.048360936
193	0x3ba1799e	0.004927828
194	0xbcd9d58d	-0.026591087
195	0xbd2c2f93	-0.042037558
196	0x3d588b23	0.052867066
197	0x3d795d99	0.060880277
198	0xbc01dc7e	-0.007926105
199	0x3d649fb2	0.05581636
200	0x3d45ca1a	0.048288442
201	0x3bb701d4	0.0055849347
202	0x3d6d649a	0.05795727
203	0x3d7e2932	0.062051006
204	0x3cfe6ef4	0.031058766
205	0xbc95ab8c	-0.018270276
206	0xbcbac02a	-0.02279671
207	0xbb194195	-0.0023385037
208	0x3c60f5f1	0.013730512
209	0x3cc1358f	0.023585109
210	0x3e0a28b8	0.13492095
211	0x3e1e58b4	0.15463525
212	0x3d0ecdb9	0.03486416
213	0x3d7c638e	0.06161838
214	0x3d5bcd31	0.053662483
215	0x3d834e60	0.06411433
216	0x3e1bf12b	0.15228717
217	0x3c8d5fb9	0.017257558
218	0x3cfc1ccf	0.030775456
219	0xbb4f716d	-0.00316533
220	0x3d23a06a	0.039947905
221	0xbb5722ca	-0.0032827132
222	0x3cffad52	0.031210575
223	0xbd8a6103	-0.06756785
224	0xbd25ddbb	-0.04049466
225	0xbc4f331a	-0.012646461
226	0xbd2761fd	-0.040864933
227	0x3d100dae	0.035169296
228	0x3cdb2dd6	0.026755255
229	0xbc7a9bb9	-0.015295916
230	0x3ca47262	0.020074073
231	0xbd28e4ee	-0.04123395
232	0xbc9885ab	-0.018618425
233	0x3d495744	0.04915549
234	0x3c98ec17	0.018667264
235	0x3b14cb63	0.0022704236
236	0x3c6999f1	0.014257894
237	0xbb49e310	-0.0030805506
238	0xbc7a1113	-0.01526286
239	0x3d2914c4	0.04127957
240	0x3d5c4aa2	0.053782113
241	0xbd41584f	-0.04720336
242	0x3c3157e4	0.010824177
243	0xbbb79465	-0.005602407
244	0x3c45b7fe	0.012067793
245	0x3a1738a1	0.0005768631
246	0x3cc87160	0.024468124
247	0xbc9c8a2e	-0.019108858
248	0x3c1156cf	0.008870794
249	0x3bec3ae9	0.007209171
250	0x3d4c7094	0.04991205
251	0xbb2bab0a	-0.0026194477
252	0xbcd9b8c2	-0.026577357
253	0xbcebeb02	-0.028798584
254	0xbcc140ad	-0.02359041
255	0xbca7ab3a	-0.02046739

arr_1 f4 [32]
0	0x3d519111	0.051163737
1	0x3d556827	0.05210128
2	0x3cb8e45b	0.022569826
3	0x3d77c657	0.060491886
4	0x3dbfa9ae	0.09358536
5	0x3cdb73dd	0.026788646
6	0x3d8153d0	0.06314814
7	0x3d940c0c	0.0722886
8	0x3d64a35a	0.055819847
9	0x3d034b6a	0.032054342
10	0x3d0007ff	0.031257626
11	0x3d406a09	0.046976123
12	0x3cd54efb	0.026038637
13	0x3cce8644	0.025210507
14	0x3d3e7ea4	0.046507493
15	0x3dcf80cd	0.10131989
16	0x3d0b5bd5	0.034023125
17	0x3d0007c6	0.031257413
18	0x3cbd3e7d	0.023101086
19	0x3d439d6a	0.047757544
20	0x3cbec7c0	0.023288608
21	0x3d256819	0.04038248
22	0x3d967abd	0.07347629
23	0x3d84f9a1	0.064929254
24	0x3cb88205	0.022522936
25	0x3ccd5f5a	0.025069881
26	0x3d339d47	0.043851163
27	0x3d4bef3c	0.0497887
28	0x3ce50d92	0.027960572
29	0x3d793f1a	0.060851194
30	0x3d9357cb	0.071944796
31	0x3ce3016c	0.027710639

arr_2 f4 [32, 32]
0	0xbbfffa85	-0.0078118467
1	0x3b741117	0.0037241632
2	0x3c2f3ed4	0.010696132
3	0x3b6d6f44	0.003622965
4	0x3c36b853	0.011152345
5	0xbca332f9	-0.019921767
6	0x3ca0e2f2	0.019639466
7	0x3cd1e22c	0.025620542
8	0x3cbe755e	0.023249324
9	0x3bbe7f57	0.00581352
10	0xbcdc132b	-0.026864609
11	0xbc2a0daa	-0.010379234
12	0xbc068e10	-0.008212581
13	0xbc12a777	-0.00895106
14	0xbc777d0d	-0.015105498
15	0x3c826690	0.015918046
16	0x3c908f86	0.017646562
17	0xbc5378f9	-0.01290726
18	0xbb7f70d4	-0.0038977163
19	0xbc7ac7f1	-0.015306459
20	0xbbcfbfc0	-0.006339997
21	0x3c87369c	0.016505532
22	0x3cd29f04	0.02571059
23	0x3ae1454b	0.0017186789
24	0x3b975891	0.0046187122
25	0x3b70f43f	0.0036766676
26	0x3b7cb57b	0.003856032
27	0xbc5cf4c9	-0.013486096
28	0x3cff317d	0.031151528
29	0x3a201ff9	0.000610828
30	0x3d150a80	0.036386967
31	0xbccfd47d	-0.025369877
32	0xbcb7bf07	-0.022429956
33	0xbcdcde72	-0.026961539
34	0x3ccc3127	0.024925781
35	0x3c88e7b9	0.016712056
36	0xbca6a168	-0.020340636
37	0xbb0bef60	-0.0021352395
38	0xbbdaf3c6	-0.006681892
39	0xbc56d782	-0.0131129045
40	0xbceb9bb9	-0.028760778
41	0x3b17a9a5	0.0023141888
42	0xbc3f06e6	-0.01165936
43	0x3c105a29	0.008810558
44	0xbad07360	-0.0015903525
45	0xbcba581d	-0.022747094
46	0xbc8ddfdf	-0.017318664
47	0xba762b82	-0.00093906384
48	0x3cae7448	0.021295682
49	0xbd0e2005	-0.034698505
50	0x3cbe5a1d	0.023236329
51	0x3b7154d2	0.0036824238
52	0x3c03e850	0.008050993
53	0x3d00ba6a	0.03142778
54	0xbbc5b084	-0.006033005
55	0xbb96ddda	-0.0046040835
56	0x3cc815d1	0.024424465
57	0x3c31050f	0.010804429
58	0xbc050435	-0.008118679
59	0xbc6e3633	-0.014539289
60	0x3cd445a3	0.025912112
61	0x3c8ff841	0.017574431
62	0xbc6fe516	-0.014642021
63	0x3b297599	0.0025857447
64	0xb9ad3b2c	-0.00033041218
65	0x3b8d273e	0.0043076565
66	0x3bbe3d34	0.005805636
67	0x3cbc5d5c	0.022993736
68	0x3ca2e7f1	0.019885989
69	0x3a712f84	0.0009200501
70	0x3ce72a1a	0.028218318
71	0x3d2dff34	0.04247971
72	0x3d3e7d62	0.046506293
73	0x3c87e957	0.016590757
74	0xbbc2d5e0	-0.005945906
75	0x3c212698	0.009835862
76	0x3cc7561b	0.02433305
77	0x3c3073f8	0.010769837
78	0x3cbd8520	0.023134768
79	0x3ab749b4	0.0013983757
80	0x3cbf4b80	0.02335143
81	0x3cfb101e	0.030647334
82	0x3b540c43	0.0032355941
83	0x3b891b1c	0.00418414
84	0x3c16cea4	0.00920454
85	0xbd04285b	-0.03226505
86	0x3c9e5bf2	0.019330952
87	0x3c32866d	0.010896307
88	0xbc54a6fe	-0.012979267
89	0xbb1888ed	-0.0023274974
90	0x3c5cb16a	0.013470033
91	0xbbf5ebcd	-0.0075049163
92	0xbc9e71fb	-0.01934146
93	0x3d128d13	0.03577907
94	0x3cd6f5a0	0.02624017
95	0x3ba971cb	0.005171036
96	0x3d0b4458	0.034000725
97	0x3cb8e376	0.0225694
98	0xbc7a896d	-0.015291554
99	0x3cc15399	0.023599433
100	0x3cb25070	0.021766871
101	0x3c6e8bc0	0.014559686
102	0x3d5ed64c	0.05440359
103	0x3d20d157	0.039262142
104	0x3c82e264	0.015977092
105	0x3c0f871f	0.008760243
106	0xbc02f3e6	-0.00799272
107	0x3c835a03	0.016034132
108	0x3c67adca	0.014140556
109	0x3c92e52d	0.017931545
110	0x3cb7e706	0.022449028
111	0x3d2b3252	0.041796036
112	0xbcca8d24	-0.024725504
113	0x3a515f05	0.00079868763
114	0xbcd530f9	-0.026024329
115	0x3d23e168	0.040009886
116	0xbc87f36b	-0.016595563
117	0x3bbec94a	0.0058223354
118	0x3c95848d	0.018251682
119	0x3bf22093	0.007389137
120	0x3be878da	0.0070944848
121	0xbc1e7576	-0.00967156
122	0xbd08269b	-0.033239942
123	0x3c7b40a9	0.01533524
124	0x3c63762e	0.013883157
125	0x3cbd1103	0.0230794
126	0x3d6c0a08	0.057626754
127	0xbc825a74	-0.015912272
128	0xbc74ac2b	-0.014933626
129	0xbc319018	-0.010837577
130	0x3bbbb690	0.0057285503
131	0x3b1cc23c	0.0023919484
132	0x3c189467	0.009312726
133	0x38b428e1	8.590683e-05
134	0x3d1c5a99	0.03817234
135	0xbcea2455	-0.028581778
136	0x3cd4f0dc	0.025993757
137	0x3cdf43cf	0.027254013
138	0x3bcf792e	0.0063315844
139	0x3c2d44d2	0.01057549
140	0x3b8f9614	0.0043819044
141	0xbbc57b5e	-0.0060266694
142	0x3c74d3d4	0.014943082
143	0x3cba407f	0.022735832
144	0x3af13687	0.0018403091
145	0xbc4cd36b	-0.012501578
146	0xbcbb7120	-0.02288109
147	0x3bc03670	0.0058658645
148	0x3d06d215	0.032915194
149	0x3b48f0ac	0.003066103
150	0x3c4874c1	0.012234868
151	0xbb164c66	-0.002293372
152	0x3cf321ff	0.029679297
153	0x3cb9e433	0.022691822
154	0x3caf4f71	0.021400185
155	0xbcae0fff	-0.021247862
156	0xbbb7aaee	-0.005605093
157	0xbb89f536	-0.0042101396
158	0x3c858e3e	0.016303178
159	0xbc0e3615	-0.008679886
160	0x3c296f10	0.010341421
161	0x3c3d7af7	0.011564962
162	0x3c922ea5	0.017844507
163	0x3cf78bdc	0.030218057
164	0x3dac4704	0.08411983
165	0xbc89244f	-0.016740946
166	0x3d675ee8	0.056486994
167	0x3cc29506	0.0237527
168	0x3d82720e	0.063694105
169	0x3c338509	0.010957011
170	0xbc3a85ab	-0.011384408
171	0x3d006406	0.03134539
172	0x3cb71c9e	0.022352513
173	0xbbd88e1f	-0.006608739
174	0x3b8498e1	0.004046545
175	0x3d8e3ba9	0.06944973
176	0xbab405d2	-0.0013734645
177	0xbcaaff5a	-0.020873714
178	0xbc9510d5	-0.018196503
179	0x3d183f1e	0.03716957
180	0x3cd7d6a0	0.026347458
181	0xbb07310e	-0.0020628604
182	0x3d24c02d	0.040222336
183	0x3c725ae7	0.014792181
184	0xbc887932	-0.016659353
185	0x3c97d7a8	0.01853545
186	0xbce387a9	-0.027774649
187	0x3d2c88cb	0.042122643
188	0x3a7699a2	0.00094070483
189	0x3c9277a3	0.017879313
190	0x3c47c6e8	0.012193419
191	0x3c7f2212	0.015572088
192	0x3c2bae3c	0.010478552
193	0x3c312c1a	0.010813737
194	0xbc176f08	-0.0092427805
195	0x3b0121b1	0.001970392
196	0xbca87124	-0.020561762
197	0x3d0490dd	0.032364715
198	0xb97bfaf5	-0.00024030714
199	0x3cef8b95	0.029241363
200	0xbc327ac5	-0.010893528
201	0x39c0d794	0.00036781712
202	0xbad765f3	-0.0016433581
203	0xbc94b3b4	-0.018152095
204	0x3cd2c9f2	0.02573106
205	0x3c560562	0.013062807
206	0xbce49138	-0.027901277
207	0x3bde8d72	0.006791764
208	0xbc95ce5c	-0.018286876
209	0x3be66948	0.0070315935
210	0xbcb251b2	-0.021767471
211	0xbc4cb2e0	-0.012493819
212	0x3c82dd1f	0.01597458
213	0xbc81bed3	-0.015838062
214	0x3b6978f1	0.0035625065
215	0x3ba8db6c	0.0051531103
216	0xbbd3e50d	-0.006466514
217	0x3bd60da7	0.006532389
218	0x3baa3ff1	0.0051956107
219	0xbcf77321	-0.030206265
220	0xb9593237	-0.00020713439
221	0xbb785ec3	-0.003789828
222	0x3bad7206	0.0052931337
223	0xbc0fcb4a	-0.008776495
224	0x3c66d7ac	0.014089506
225	0x3d69877f	0.057013985
226	0xbb2b81ce	-0.00261699
227	0x3d7621ca	0.060090818
228	0x3dda74a6	0.1066678
229	0xbc075e96	-0.008262297
230	0x3d6cafac	0.05778472
231	0x3d483235	0.048876006
232	0x3d435b63	0.047694575
233	0x3b5264b3	0.0032103478
234	0x3c3f4ae2	0.011675568
235	0x3c8b7de5	0.017027805
236	0x3b81cbf4	0.0039610807
237	0xbb8033d4	-0.0039124284
238	0x3cbeef77	0.023307545
239	0x3d987d99	0.07445831
240	0xbb921b73	-0.0044588386
241	0x3ba03c1c	0.004889978
242	0xbc82c983	-0.015965229
243	0x3ca421f9	0.02003573
244	0xbc46f237	-0.012142709
245	0xbb2962db	-0.0025846276
246	0x3d8ea88c	0.069657415
247	0x3d583a07	0.052789714
248	0xbcac1ce3	-0.021009868
249	0xbcd5c2ba	-0.02609383
250	0x3c6d49d6	0.014482936
251	0x3d180f8d	0.037124205
252	0x3c095544	0.008382145
253	0x3d359a7e	0.04433679
254	0x3d542370	0.05179161
255	0x3ab8a8d4	0.0014088401

arr_3 f4 [32]
0	0x3cdfcaa0	0.027318299
1	0x3c759931	0.014990137
2	0x3d253537	0.040333953
3	0x3d558733	0.05213089
4	0x3cb5ef69	0.022208886
5	0x3d6b7aee	0.05749028
6	0x3c5d88f6	0.013521424
7	0x3daae472	0.08344354
8	0x3d786874	0.06064649
9	0x3d864082	0.06555273
10	0x3d297eef	0.04138082
11	0x3d218f3b	0.039443236
12	0x3d4f4188	0.050599605
13	0x3cf06e7e	0.029349562
14	0x3c94666b	0.018115243
15	0x3d412d0b	0.047162097
16	0x3c78ed49	0.015193292
17	0x3c32c89d	0.010912088
18	0x3c4ad8da	0.012380803
19	0x3d047088	0.03233388
20	0x3cc3a1bb	0.02388083
21	0x3c3f123f	0.011662065
22	0x3c62e92f	0.013849541
23	0x3c821865	0.015880773
24	0x3cc25a01	0.023724558
25	0x3d3047b1	0.04303712
26	0x3d374179	0.044740174
27	0x3c45ba1a	0.012068296
28	0x3d343f79	0.044005845
29	0x3d8d8c57	0.06911533
30	0x3d7af7d7	0.061271515
31	0x3d4f936a	0.050677694

arr_4 f4 [16, 32]
0	0x3ecf2991	0.404614
1	0xbe3f674d	-0.1869175
2	0x3e98c713	0.29839382
3	0x3efee3b9	0.49783114
4	0x3e49e7e1	0.19717361
5	0x3d888546	0.06666045
6	0xbd45ee23	-0.048322808
7	0x3ed4047c	0.4140967
8	0x3da6d737	0.08146518
9	0x3e94c8ab	0.29059348
10	0x3ef17396	0.47158498
11	0x3ee63ab1	0.44966653
12	0x3ee79248	0.4522879
13	0x3b0f7517	0.002188986
14	0x3dac21fd	0.0840492
15	0x3cbd61ed	0.023117984
16	0xbe840a1e	-0.2578897
17	0xbe62bce2	-0.22142366
18	0x3e16d4b4	0.14729577
19	0x3e7e4484	0.24830824
20	0x3ec83ae5	0.39107433
21	0x3e189d39	0.14903726
22	0xbdfe9417	-0.1243059
23	0xbdfd3b2c	-0.12364802
24	0xbdf173d4	-0.117896706
25	0xbddffdc9	-0.109370776
26	0x3e148563	0.14504008
27	0xbced09ac	-0.028935276
28	0x3d6c0e55	0.057630856
29	0x3b5861c0	0.0033017248
30	0xbe473ddf	-0.19457196
31	0xbdde3a94	-0.10851017
32	0xbe162f6d	-0.14666529
33	0xbe0ee8e6	-0.13956031
34	0xbe434c08	-0.19071972
35	0x3d56b14d	0.05241518
36	0xbe0e438d	-0.13892956
37	0x3ef74a1f	0.48298737
38	0xbd403df0	-0.04693407
39	0x3e032988	0.12808812
40	0x3e7fb8ae	0.24972793
41	0x3e9bcab6	0.30428094
42	0xbb976ab8	-0.004620876
43	0x3e28fed7	0.16503464
44	0x3d60450b	0.054753345
45	0x3ea8e2c9	0.32985523
46	0xbe993357	-0.29921982
47	0x3ee159e6	0.440139
48	0x3ebeefbd	0.3729228
49	0x3e3e92f5	0.18610747
50	0x3e40c3cc	0.1882469
51	0x3e378275	0.17920859
52	0x3d242edd	0.040083755
53	0xbe3c51d5	-0.18390591
54	0xbd92106b	-0.07132038
55	0x3e1a4fa5	0.15069444
56	0x3e080b26	0.13285503
57	0x3ebc33f2	0.3675838
58	0x3deb138b	0.11478337
59	0xbe1a8a84	-0.15091902
60	0x3e6ce91c	0.23135799
61	0x3eb9ca60	0.36287212
62	0x3eb5dfbf	0.35522267
63	0x3ea30c1e	0.31845182
64	0x3e26a515	0.16273911
65	0x3dbe9d59	0.093073554
66	0x3e92ef75	0.28698316
67	0x3dc0ad6d	0.09408078
68	0x3e9f955f	0.3116865
69	0x3ebdb15c	0.37049377
70	0xbe2fc512	-0.1716502
71	0x3eebc1e5	0.46046367
72	0xbd973049	-0.073822565
73	0x3e9fb76a	0.3119462
74	0xbd1bfa7e	-0.038080685
75	0xbe36e8e3	-0.17862277
76	0x3ea358bc	0.31903636
77	0xbd2fa826	-0.04288497
78	0xbe94da65	-0.29072872
79	0x3ef5813f	0.4795017
80	0xbe8fa6fb	-0.28057083
81	0xbe2434c8	-0.1603576
82	0xbdad5265	-0.08462981
83	0x3eb4cf7c	0.35314548
84	0x3e7bf818	0.24606359
85	0x3df51e19	0.11968631
86	0x3e698284	0.22803694
87	0xbe1a6b34	-0.15079957
88	0x3e4c1069	0.19928135
89	0x3e29c00b	0.16577165
90	0xbc4d146d	-0.012517077
91	0xbde9be00	-0.11413193
92	0xbe1711f7	-0.14752947
93	0x3ee41e2e	0.44554275
94	0x3ecde0df	0.40210626
95	0x3e6eb78f	0.2331221
96	0x3e90c4cf	0.28275153
97	0xbe7ba9b0	-0.2457645
98	0xbe5066eb	-0.2035176
99	0x3ea5edf8	0.32408118
100	0xbdcd060e	-0.100109205
101	0x3e97c866	0.2964508
102	0xbe9e1c66	-0.3088104
103	0xbdf3142b	-0.11869081
104	0x3ee03fe3	0.43798742
105	0xbdb028f8	-0.08601564
106	0x3ecf89c6	0.405348
107	0x3eabe7f2	0.33575398
108	0xbe37f292	-0.17963627
109	0xbd921e26	-0.071346566
110	0x3e1be053	0.15222292
111	0x3da22caa	0.07918675
112	0x3e88d058	0.26721454
113	0xbd9c79c8	-0.076404154
114	0xbd678d2f	-0.056531128
115	0xbda8aa38	-0.08235592
116	0x3eb891af	0.36048648
117	0xbd35a234	-0.044344142
118	0xbe60b3ab	-0.21943538
119	0xbe47dbde	-0.19517466
120	0x3cc395b1	0.02387509
121	0xbd5269b7	-0.05137035
122	0xbe126946	-0.14297971
123	0x3d1d74ce	0.03844147
124	0xbddd76b9	-0.1081366
125	0x3ba91315	0.0051597455
126	0x3e175972	0.14780214
127	0x3e791d26	0.24327525
128	0xbe7e0c19	-0.24809302
129	0xbe3b42cd	-0.18287201
130	0x3e270b09	0.16312803
131	0xbe483d58	-0.19554651
132	0xbe9f2f13	-0.31090602
133	0xbe9a3350	-0.30117273
134	0x3e0cb0df	0.13739346
135	0xbdcdbd43	-0.100458644
136	0x3ebce8a2	0.36896235
137	0xbdc3bf9b	-0.0955803
138	0xbd935cc0	-0.07195425
139	0x3e46fef2	0.19433191
140	0x3c78233e	0.015145121
141	0x3e9e857c	0.30961215
142	0x3d312d83	0.043256294
143	0xbe918d88	-0.28428292
144	0xbc0b9aa1	-0.008520753
145	0xbda89b9c	-0.08232805
146	0x3d0d0abe	0.034434073
147	0x3d543702	0.051810272
148	0x3c30f7db	0.010801281
149	0x3c2daba8	0.010600008
150	0x3df1ad42	0.118006244
151	0xbcb21fd4	-0.021743692
152	0x3e10586d	0.14096232
153	0xbe8eeb80	-0.27914047
154	0x3eba8afb	0.3643416
155	0x3d6e853d	0.058232535
156	0xbe90dbda	-0.28292733
157	0xbe5969fa	-0.21231833
158	0x3e1ada29	0.15122284
159	0xbda1ea86	-0.0790606
160	0x3d91bdc2	0.071162716
161	0xbe4b95af	-0.19881319
162	0x3d0db6c5	0.03459813
163	0xbd810927	-0.06300574
164	0x3ef1d6e7	0.4723427
165	0x3efd19b2	0.49433666
166	0xbe7c32fd	-0.24628825
167	0x3e3b3b06	0.18284234
168	0x3ed5c975	0.41755262
169	0x3cb13afd	0.021634573
170	0x3e36e59a	0.17861024
171	0x3ee04d4b	0.4380897
172	0x3ec499b1	0.38398507
173	0xbe6367d6	-0.22207579
174	0xbe8aed10	-0.2713399
175	0xbe0cf3a0	-0.1376481
176	0xbe156c1a	-0.14592019
177	0x3e35a757	0.17739616
178	0xbd679c3a	-0.056545474
179	0x3ede0f74	0.43371165
180	0xbe18ae37	-0.14910208
181	0xbe2efda0	-0.17088938
182	0x3de2b116	0.11068933
183	0x3d3fad01	0.04679585
184	0x3e4ac787	0.19802676
185	0x3e2c0642	0.16799262
186	0x3cc6311e	0.024193343
187	0x3e461793	0.1934493
188	0x3d3d81bb	0.0462663
189	0x3e3a8a96	0.18216929
190	0x3f02a6c2	0.510357
191	0x3ebd8a8c	0.37019765
192	0x3e19f886	0.1503621
193	0xbe83709a	-0.25671846
194	0xbe0163a1	-0.12635662
195	0x3e82735a	0.2547863
196	0x3ec58ae0	0.38582516
197	0x3cbe9d15	0.023268262
198	0x3d438667	0.047735598
199	0x3ee33295	0.4437453
200	0xbd991b41	-0.074759014
201	0x3ddb0726	0.10694723
202	0x3edc675e	0.43047613
203	0xbd9dbb65	-0.07701758
204	0x3e923469	0.2855561
205	0xbd4aa9e5	-0.04947843
206	0xbe6e75a1	-0.2328706
207	0x3e9deb25	0.30843464
208	0x3eb31b90	0.34981966
209	0x3ea71e5e	0.32640356
210	0x3e114798	0.14187467
211	0x3e87cbf7	0.265228
212	0x3e2d0668	0.16896975
213	0x3deb23cc	0.11481437
214	0xbe8dacf3	-0.27671012
215	0xbe8ce876	-0.27521104
216	0xbc9857ff	-0.018596647
217	0x3ef365da	0.47538644
218	0x3e78ea06	0.24308023
219	0x3cce0bc4	0.025152095
220	0xbd34dde2	-0.044156916
221	0x3e9e5c04	0.30929577
222	0xbce9336e	-0.028466906
223	0x3e9fa796	0.31182545
224	0x3c05f42c	0.008175891
225	0x3d88b498	0.066750705
226	0x3ee4198f	0.4455075
227	0x3e0de121	0.13855411
228	0x3e42b481	0.1901417
229	0x3ec2dfa6	0.38061255
230	0xbef7e1e7	-0.48414537
231	0x3e101284	0.14069563
232	0x3ed286b0	0.41118383
233	0x3e1ee3a7	0.1551653
234	0xbd47b72c	-0.04875867
235	0xbdb85ace	-0.090016946
236	0xbe03db0f	-0.12876533
237	0x3e211eb7	0.15734373
238	0x3cb8f22f	0.02257642
239	0x3ec20c3b	0.37899956
240	0xbe4d2823	-0.20034842
241	0xbeb925dc	-0.36161697
242	0x3e4615e1	0.19344284
243	0x3dc32ce4	0.095300466
244	0x3e2e7055	0.17035039
245	0x3de031c4	0.10946992
246	0x3e98174c	0.29705274
247	0xbe6e7b62	-0.23289254
248	0x3e490970	0.19632506
249	0x3e9ce9be	0.3064708
250	0xbe153e49	-0.14574541
251	0xbe9e060e	-0.30863994
252	0x3e5c2b9a	0.21501008
253	0x3e20589c	0.15658802
254	0x3eec9b4f	0.4621224
255	0x3e9ebc54	0.31003058

arr_5 f4 [16]
0	0x3c3c8a0e	0.011507524
1	0x3c99daa5	0.018781016
2	0x3ca3d0cf	0.019997029
3	0x3c1fe74a	0.009759733
4	0x3d0b7d69	0.034055147
5	0x3c90f491	0.017694743
6	0x3c61f871	0.013792143
7	0x3c8655d6	0.016398352
8	0x3c63a84c	0.013895106
9	0x3c24835b	0.010041083
10	0x3c178b21	0.0092494795
11	0x3c58556d	0.013203961
12	0x3c7a2f72	0.015270101
13	0x3ca004a6	0.019533467
14	0x3c170ecd	0.009219837
15	0x3c172c91	0.009226934
