Unsupervised_Pretraining/model_init/savedmodel.npz (npz, 9730 bytes, 6 tensors)

arr_0 f4 [32, 14]
0.023790898 0.02212075 -0.044779543 -0.052252576 -0.014331905 -0.029144758 -0.0067690033 -0.059000608
0.005833034 0.043208625 0.036756355 0.021799512 -0.042377267 -0.028952895 0.034927458 0.024425937
0.052175757 0.0016958853 0.074146934 0.050269168 0.046183515 0.050599273 -0.01709909 -0.03148599
-0.030692272 0.014746851 -0.02689838 0.035999753 0.077875175 0.13107237 -0.012136995 0.012556171
0.078838795 0.027499482 0.07344794 0.03668339 0.0113503 0.044859078 -0.031475764 0.0133127505
0.033040203 0.030563261 0.021620573 0.06454077 0.061928757 0.050844382 -0.015532392 0.026026903
0.026808197 0.096388645 -0.004586735 0.006136486 -0.035916254 -0.02992168 0.008786061 -0.004643722
0.04666993 0.045121 -0.036563147 0.008502738 0.06829927 0.067085326 -0.012318472 0.045988586
-0.0012178712 0.002344579 0.009243794 0.007286867 -0.02537124 -0.013791586 0.0336169 0.06901719
0.035430484 0.017752191 0.03330796 0.070407964 0.09008692 0.02875399 -0.018515604 -0.0074293907
0.010002182 -0.048234843 0.002281998 0.016322223 0.012225021 0.045397155 0.051765464 0.07570516
0.04263195 0.035068866 -0.018742602 0.066907674 -0.014437925 0.010873878 0.03715505 -0.05433378
0.029853355 -0.007115906 0.037111256 0.05259527 -0.021209264 -0.03774723 0.05658991 -0.0041539953
0.05863665 0.023691874 -0.0014608112 0.006256218 -0.019843511 -0.020253608 0.02609035 -0.018134193
0.082672134 0.07562289 -0.011164428 0.034386396 0.0102394475 0.058407206 0.067695245 0.04394366
0.0016073688 0.012051159 -0.026246509 0.028028047 0.016390521 0.0009994654 0.06447842 0.018580716
0.023419028 0.061295982 0.09550059 0.018618744 0.050981414 0.06991198 -0.04096405 -0.04121337
0.020060036 -0.0014502476 0.028552517 -0.016300514 0.021413287 0.030522143 0.004674392 -0.026692363
0.0023558128 -0.03761794 -0.048139043 -0.0509073 0.018262643 0.013152174 0.024311764 0.0073780743
0.0019334584 -0.040635884 0.06456144 0.09846849 0.007786236 0.018218925 0.030947216 0.08367239
0.050743293 0.0051277946 0.013050595 -0.012131973 0.056340598 0.0074644177 -0.032353435 -0.03233493
0.046405043 0.06259236 -0.017720766 0.07428419 0.042178024 0.02710629 0.10193934 -0.042815156
-0.0196411 0.013931808 -0.010661708 0.03586468 0.029214736 0.0015221259 0.10709931 0.045965865
0.011684685 0.039698392 0.06475594 0.009962493 0.11696453 0.08077128 0.023231331 0.03463341
0.0027513388 0.035854302 0.008656116 0.0082074255 0.16442388 0.15991913 0.059392735 0.031389758
0.09346584 0.106798515 0.15216728 0.038597267 0.008206022 -0.056518074 0.014379429 0.009114351
0.02986262 -0.011096632 0.096347824 0.12480887 -0.018827187 0.07850801 0.011569099 0.0712238
0.08526177 -0.008941732 0.060662817 -0.008336188 0.046323612 0.03554174 -0.013071102 -0.014115742
0.050913677 -0.012139119 0.0064106598 0.029769804 0.015683774 -0.036855806 0.054016117 0.033846263
-0.007043621 -0.015934914 -0.016418897 0.031262867 -0.010745308 -0.0025222455 -0.008938476 0.015665242
-0.008695295 -0.02001546 -0.037217293 0.0011224524 -0.027645426 -0.016589353 0.026986675 -0.0074800947
-0.030740537 -0.020037837 -0.037300147 0.0073760957 0.08319811 0.08860613 0.012250419 0.060286574
00000000: 21e5 c23c 9336 b53c c16a 37bd cc06 56bd
00000010: 5ed0 6abc fdc0 eebc 84ce ddbb 9faa 71bd
00000020: 0923 bf3b 87fb 303d d58d 163d e494 b23c
00000030: c993 2dbd 9f2e edbc 1810 0f3d e718 c83c
00000040: 3fb6 553d 7848 de3a 59da 973d 0be7 4d3d
00000050: ed2a 3d3d 2f41 4f3d 6413 8cbc 74f7 00bd
00000060: 5c6e fbbc c79c 713c fe59 dcbc 7a74 133d
00000070: 057d 9f3d d637 063e 3fda 46bc 66b8 4d3c
00000080: 3c76 a13d 9846 e13c e06b 963d 5341 163d
00000090: 9cf6 393c 27be 373d bbec 00bd b91d 5a3c
000000a0: 2a55 073d ce5f fa3c a11d b13c f42d 843d
000000b0: 02a9 7d3d 3342 503d 937b 7ebc 5f36 d53c
000000c0: dd9c db3c 6967 c53d 524c 96bb 9314 c93b
000000d0: ec1c 13bd 501e f5bc 69f3 0f3c 5d2a 98bb
000000e0: f828 3f3d ccd0 383d 3dc3 15bd 114f 0b3c
000000f0: 7de0 8b3d 0864 893d 6bd3 49bc 875e 3c3d
00000100: faa0 9fba 82a7 193b 4873 173c acc6 ee3b
00000110: 59d7 cfbc 1bf6 61bc e0b1 093d e258 8d3d
00000120: 8e1f 113d 0b6d 913c ed6d 083d 0d32 903d
00000130: 7e7f b83d 7d8d eb3c 09ae 97bc 3f72 f3bb
00000140: 31e0 233c e691 45bd 938d 153b 2fb6 853c
00000150: 744b 483c 5ef2 393d 0608 543d 4f0b 9b3d
00000160: d79e 2e3d 5fa4 0f3d 168a 99bc e406 893d
00000170: 0c8d 6cbc 5a28 323c e52f 183d 198d 5ebd
00000180: 068f f43c 8c2c e9bb f901 183d 236e 573d
00000190: 0dbf adbc d79c 1abd d2ca 673d 3d1e 88bb
000001a0: fc2c 703d 7615 c23c b178 bfba f600 cd3b
000001b0: dc8e a2bc e5ea a5bc 6ebb d53c 298e 94bc
000001c0: 0250 a93d 2ce0 9a3d 01eb 36bc c0d8 0c3d
000001d0: 5bc3 273c 653c 6f3d cea3 8a3d 44fe 333d
000001e0: 59ae d23a 3972 453c eb02 d7bc 139b e53c
000001f0: 6a45 863c 7e00 833a 430d 843d 9636 983c
00000200: 43d9 bf3c 7f11 7b3d d095 c33d 5686 983c
00000210: e3d1 503d 032e 8f3d ebc9 27bd 5acf 28bd
00000220: f254 a43c 3c16 beba f8e6 e93c a888 85bc
00000230: eb6a af3c 9309 fa3c a42b 993b f1a9 dabc
00000240: fb63 1a3b 4515 1abd 722d 45bd 2c84 50bd
00000250: 8a9b 953c 377c 573c 7729 c73c c6c3 f13b
00000260: 196c fd3a d071 26bd ca38 843d d9a9 c93d
00000270: ae23 ff3b db3f 953c 0485 fd3c 6e5c ab3d
00000280: 33d8 4f3d 0f07 a83b 2ad2 553c 2fc5 46bc
00000290: 66c5 663d 1398 f43b 0985 04bd a271 04bd
000002a0: 3713 3e3d 6c30 803d 242b 91bc 4f22 983d
000002b0: ddc2 2c3d 030e de3c 93c5 d03d f25e 2fbd
000002c0: 5fe6 a0bc 3d42 643c 72ae 2ebc d8e6 123d
000002d0: be53 ef3c 1282 c73a e256 db3d b446 3c3d
000002e0: 1f71 3f3c c89a 223d c39e 843d b939 233c
000002f0: 198b ef3d 6a6b a53d a24f be3c c3db 0d3d
00000300: ce4f 343b f6db 123d 62d2 0d3c 7078 063c
00000310: bc5e 283e d7c1 233e cc45 733d 8c92 003d
00000320: 056b bf3d 2eb9 da3d bdd1 1b3e 2b18 1e3d
00000330: 8d72 063c 7f7f 67bd b297 6b3c 5c54 153c
00000340: 74a2 f43c a6ce 35bc 0252 c53d cb9b ff3d
00000350: 793b 9abc cfc8 a03d 518c 3d3c c9dd 913d
00000360: b99d ae3d 5880 12bc 9379 783d 8294 08bc
00000370: d4bd 3d3d 3794 113d 2d28 56bc b745 67bc
00000380: dc8a 503d 28e3 46bc 8310 d23b cedf f33c
00000390: 427b 803c 1df6 16bd 0140 5d3d 61a2 0a3d
000003a0: 2dce e6bb f089 82bc ec80 86bc 7e0d 003d
000003b0: 170d 30bc 424c 25bb b072 12bc 6554 803c
000003c0: b676 0ebc 76f7 a3bc 2971 18bd 411f 933a
000003d0: a978 e2bc 65e6 87bc 2913 dd3c 951b f5bb
000003e0: 94d3 fbbc 6426 a4bc 0ac8 18bd 2db3 f13b
000003f0: c563 aa3d 2177 b53d fbb5 483c 0eef 763d

arr_1 f4 [32]
0.036882363 0.040913705 0.0675542 0.036382474 0.04128871 0.053179298 0.032772996 0.04658547
0.05421056 0.044366743 0.038819946 0.070210524 0.066522956 0.06261684 0.103397995 0.085382506
0.03130429 0.034226246 0.07261696 0.024491804 0.023147997 0.032773048 0.024694862 0.080882385
0.03574174 0.023804214 0.031101346 0.029694868 0.034491923 0.05041371 0.025741741 0.03005426
00000000: f611 173d 2195 273d db59 8a3d ca05 153d
00000010: 5a1e 293d 89d2 593d fa3c 063d 68d0 3e3d
00000020: e40b 5e3d e7b9 353d aa01 1f3d 89ca 8f3d
00000030: 303d 883d 423d 803d 54c2 d33d 06dd ae3d
00000040: ed38 003d d230 0c3d 33b8 943d 09a3 c83c
00000050: dea0 bd3c 083d 063d e14c ca3c aaa5 a53d
00000060: ee65 123d 0e01 c33c 40c8 fe3c a742 f33c
00000070: 6747 0d3d 9b7e 4e3d 58e0 d23c 5a34 f63c

arr_2 f4 [32, 32]
-0.00013054683 -0.010820051 0.013953533 -0.00475433 -0.026823446 -0.0026675868 -0.028829183 0.011732773
0.0042645675 0.0058053895 -0.020283522 0.02178207 -0.009976271 -0.0047961115 0.037442427 0.014037486
0.028022468 0.025773736 0.017385969 -0.02563932 -0.00747245 0.009696031 0.0145303635 -0.0023141268
-0.015540275 -0.009842997 0.013041094 -0.024250519 0.02133657 0.035176784 0.017813636 0.030137168
-0.003597164 0.033336513 0.035540994 0.007237721 -0.0038063915 0.0133853275 0.021499734 0.015855083
0.026784562 -0.009687698 0.0046199965 0.023987127 0.029807933 0.036495883 0.052464984 0.008315163
-0.005179147 0.015390025 0.018546956 -0.008066888 0.014391536 0.02302688 0.023220163 0.033169962
0.014304397 0.030188723 -0.011743072 0.0076188687 0.0067474903 -0.006156775 -0.017045284 -0.0045140507
0.0016333748 7.418441e-05 -0.013366613 0.008748699 -0.016316226 0.01282319 -0.025039433 0.032204885
-0.018801577 -0.009620229 -0.007234491 0.01829806 -0.030312462 0.0020542024 -0.007231517 0.012443939
-0.02163057 0.002133974 -0.03130031 0.020988263 0.0102562215 0.0022135188 0.015577902 0.008405519
-0.023114061 0.013541859 -0.03103915 0.0061166817 0.03236441 -0.024469014 -0.00012897459 -0.022876652
0.00045399586 0.026181165 0.04569634 -0.0124466745 -0.004116835 0.0029640472 0.00057938095 -0.0022337993
0.027797855 0.013332401 0.008830436 0.038029373 0.013829205 0.026996301 0.055046912 0.021309156
-0.012994011 -0.008535212 0.02065567 0.004409235 -0.0065406286 0.010294349 0.0024638267 0.014848355
0.0022969071 -0.024078246 0.020395095 -0.01874322 0.0035760454 0.019033711 -0.004377095 -0.0024491157
-0.0028925561 0.0053002397 -0.0075099515 0.0101134945 0.0016001677 0.006039672 -0.0041304757 0.026062664
0.0006136476 0.029523391 0.020060038 0.025168955 -0.002025305 0.01157607 -0.0119109275 -0.023929894
0.022758009 -0.032015298 0.013369831 0.018139217 -0.007095551 -0.01642094 -0.0076905782 0.01449484
0.014548814 0.011627913 -0.006723379 0.030177016 -0.032134432 -0.018181205 0.008728287 0.016440032
-0.005503403 0.0012562115 0.011570376 -0.013222094 -0.019791 0.036150284 0.025297245 0.00080971594
0.0054996265 -0.01788389 -0.0065942053 0.011967011 -0.009687758 -0.00091454404 0.009203102 0.0032165004
0.032831956 0.008355744 0.022602025 0.01926506 -0.005058637 0.013930032 0.0049862354 -0.0056581744
-0.0075240764 -0.020547977 0.008531477 -0.011652666 -0.0013492263 0.0150209395 0.0020146756 -0.021697873
0.011126432 0.019455198 0.013255192 0.008774083 0.009956319 0.0080143595 -0.029132247 0.00034528348
-0.03181933 -0.0055758366 0.007221738 0.0042808573 0.011548987 -0.0026502365 -0.019723905 -0.022631709
0.016174732 0.0028495956 -0.0032800296 0.015297783 0.014457267 -0.0030427622 0.0019379316 -0.010974978
0.019801576 -0.015471468 0.03426804 -0.023014631 -0.023637174 0.0228674 -0.017843736 0.013729428
-0.006439477 0.010244385 -0.021291303 -0.012899112 -0.008624389 -0.028290773 -0.033208847 0.010864018
-0.022423234 -0.0006232503 -0.009160781 0.02125001 0.0010649974 -0.030261736 0.00084434426 0.018545803
0.017517399 -0.002917797 0.008596366 0.01279265 -0.019800138 -0.015897349 0.020606147 -0.010517004
-0.005772497 -0.02675037 0.015275613 -0.01826595 -0.00078019383 0.021341108 -0.00094933796 -0.029663382
00000000: 66e3 08b9 9546 31bc 5c9d 643c 36ca 9bbb
00000010: d8bc dbbc aed2 2ebb 2e2b ecbc d13a 403c
00000020: c9bd 8b3b 233b be3b a129 a6bc 5070 b23c
00000030: 8373 23bc b328 9dbb 3b5d 193d 7cfd 653c
00000040: 608f e53c 7123 d33c 056d 8e3c 8d09 d2bc
00000050: 74db f4bb 1adc 1e3c c310 6e3c 9ba8 17bb
00000060: a39c 7ebc 8644 21bc 50aa 553c 06a9 c6bc
00000070: 08ca ae3c 8815 103d e7ed 913c 39e2 f63c
00000080: 66be 6bbb de8b 083d 6f93 113d 672a ed3b
00000090: a774 79bb 224e 5b3c 3620 b03c 85e2 813c
000000a0: 4c6b db3c 27b9 1ebc 5763 973b a780 c43c
000000b0: c42f f43c b57c 153d 86e5 563d 523c 083c
000000c0: d5b5 a9bb 7226 7c3c c9ef 973c fb2a 04bc
000000d0: 7aca 6b3c dea2 bc3c 3638 be3c 3add 073d
000000e0: fd5c 6a3c 574e f73c 0466 40bc b4a7 f93b
000000f0: 0d1a dd3b c6be c9bb 8da2 8bbc 9aea 93bb
00000100: f716 d63a 7493 9b38 a3ff 5abc b456 0f3c
00000110: 9ba9 85bc 5b18 523c 7f1f cdbc 45e9 033d
00000120: c405 9abc 2a9e 1dbc 4f0f edbb d0e5 953c
00000130: d751 f8bc cc9f 063b 5df6 ecbb aae1 4b3c
00000140: 9832 b1bc 25da 0b3b c134 00bd 94ef ab3c
00000150: b609 283c af10 113b 753a 7f3c 4db7 093c
00000160: b359 bdbc acde 5d3c d145 febc 726e c83b
00000170: 8b90 043d 3e73 c8bc 5a3d 07b9 d167 bbbc
00000180: 4b06 ee39 e279 d63c 162c 3b3d 23ed 4bbc
00000190: 84e6 86bb 7640 423b 99e1 173a ef64 12bb
000001a0: 54b8 e33c 2570 5a3c 88ad 103c b0c4 1b3d
000001b0: e493 623c 5927 dd3c df78 613d 8a90 ae3c
000001c0: d5e4 54bc 46d7 0bbc 1436 a93c 587b 903b
000001d0: c552 d6bb a1a9 283c 2778 213b 8446 733c
000001e0: b587 163b be3f c5bc 9d13 a73c 628b 99bc
000001f0: 165c 6a3b 96ec 9b3c bc6d 8fbb 5881 20bb
00000200: 0a91 3dbb a2ad ad3b 0a16 f6bb 12b3 253c
00000210: b8bc d13a 71e8 c53b f158 87bb 5e81 d53c
00000220: 31dd 203a 0adb f13c f354 a43c 202f ce3c
00000230: fbba 04bb 8fa9 3d3c 0d26 43bc a008 c4bc
00000240: 016f ba3c 7922 03bd 230d 5b3c b298 943c
00000250: cc81 e8bb 3585 86bc 3f01 fcbb c47b 6d3c
00000260: 265e 6e3c 0183 3e3c ca4f dcbb ca35 f73c
00000270: 659f 03bd c0f0 94bc 1701 0f3c 3fad 863c
00000280: e455 b4bb 77a7 a43a ad91 3d3c 7ba1 58bc
00000290: bc20 a2bc 5212 143d 2b3c cf3c 1e43 543a
000002a0: 3636 b43b 3c81 92bc 3414 d8bb 4811 443c
000002b0: 67b9 1ebc 03be 6fba 9cc8 163c eccb 523b
000002c0: cd7a 063d 88e6 083c e227 b93c c2d1 9d3c
000002d0: ecc2 a5bb ca3a 643c 9363 a33b 3568 b9bb
000002e0: 878c f6bb 3b54 a8bc 9cc7 0b3c d3ea 3ebc
000002f0: 86d8 b0ba 631a 763c a608 043b bdbf b1bc
00000300: a34b 363c 8260 9f3c 4e2c 593c 2cc1 0f3c
00000310: d41f 233c a94e 033c c0a6 eebc 2a07 b539
00000320: fc54 02bd 82b5 b6bb 54a4 ec3b 6f46 8c3b
00000330: f637 3d3c 97af 2dbb 0794 a1bc 2266 b9bc
00000340: df80 843c 48c0 3a3b c4f5 56bb 8da3 7a3c
00000350: 2cde 6c3c 1469 47bb 3202 fe3a 65d0 33bc
00000360: ea36 a23c 0a7c 7dbc a55c 0c3d 2e89 bcbc
00000370: bfa2 c1bc 6a54 bb3c 072d 92bc 65f1 603c
00000380: 4002 d3bb 11d8 273c 196b aebc cc56 53bc
00000390: 4f4d 0dbc 0dc2 e7bc 0006 08bd fffe 313c
000003a0: eeb0 b7bc 9f61 23ba 1a17 16bc 8014 ae3c
000003b0: 6297 8b3a 76e7 f7bc fc56 5d3a 5eed 973c
000003c0: a680 8f3c 8338 3fbb c6d7 0c3c 4398 513c
000003d0: e633 a2bc 283b 82bc 39ce a83c 834f 2cbc
000003e0: 3727 bdbb 9823 dbbc 9146 7a3c 79a2 95bc
000003f0: ec85 4cba 8cd3 ae3c fedc 78ba 9f00 f3bc

arr_3 f4 [32]
0.025208913 0.044302694 0.012240178 0.043349676 0.018568244 0.0197558 0.013880794 0.016849566
0.04747467 0.013943272 0.04722462 0.020771421 0.014349545 0.013912049 0.01941204 0.04925585
0.084209144 0.04214646 0.012927672 0.022505764 0.0144901415 0.016083894 0.011927678 0.010943321
0.014833881 0.059115265 0.04345899 0.012708926 0.012130813 0.013302657 0.05656845 0.093880914
00000000: ec82 ce3c be76 353d 078b 483c 6e8f 313d
00000010: 6e1c 983c ead6 a13c 456c 633c 1a08 8a3c
00000020: cd74 423d 5272 643c 9a6e 413d d428 aa3c
00000030: 5b1a 6b3c 5def 633c 0006 9f3c 81c0 493d
00000040: d875 ac3d c4a1 2c3d 96ce 533c 025e b83c
00000050: 0f68 6d3c 5fc2 833c 4f6c 433c 9d4b 333c
00000060: ce09 733c d922 723d 0e02 323d 1939 503c
00000070: 51c0 463c 63f3 593c 52b4 673d a344 c03d

arr_4 f4 [16, 32]
-0.21496174 0.18123221 -0.3492675 -0.1997924 -0.21266012 0.3591698 -0.38036072 -0.02628868
0.32550997 0.16996394 0.030169798 -0.104149535 0.2239305 0.14751112 0.14419141 0.017735967
0.30946162 0.3779297 -0.36405262 -0.0055799093 -0.09178604 -0.0040999874 0.123802856 0.21341252
-0.33516064 0.12301479 0.047941875 0.21282338 -0.05724447 -0.28162083 0.3799714 -0.14140338
-0.033742115 0.094510674 0.20603782 0.13916473 0.06492098 0.18480949 0.11067203 -0.4854461
0.18354005 -0.03312823 0.11580495 0.36597615 0.055573974 -0.32744876 0.4345001 -0.17023732
0.19067802 0.2174974 -0.110442884 0.41233265 -0.17775056 0.1871602 -0.073691525 0.27182195
-0.34764546 0.31766006 -0.13925973 -0.3115996 -0.033704456 -0.20162311 0.018398723 0.10387005
0.3415909 0.09588526 0.2174654 -0.1822359 0.2691748 0.40077746 -0.37893906 -0.35066858
0.37791926 0.30975896 0.39921442 0.25046778 -0.25292155 -0.34795 -0.119021825 -0.03237673
-0.105013855 0.32695806 0.079412095 0.28260374 0.01937734 0.13631655 -0.11312685 -0.10460428
0.061195042 -0.12679024 0.101514444 -0.23109597 0.05401268 -0.36856043 0.45222515 0.32735822
0.24732293 0.13511682 0.22083978 -0.16618823 0.079676956 -0.03872815 -0.25756675 0.15931389
-0.07964809 0.3332214 0.39717025 0.29305658 -0.0013046023 0.08446987 0.17526348 -0.12860437
-0.03955558 -0.10491794 0.12341784 0.40804556 -0.28039736 -0.20714298 0.1130364 -0.3484484
0.26652896 0.36717218 0.23148537 -0.063687116 0.07561745 -0.23466551 0.094973646 -0.15690422
0.08957992 -0.16704614 -0.083553635 -0.16476429 0.1745735 0.06493558 -0.30379364 -0.11135062
-0.05852848 0.44027382 0.19668719 0.13635635 -0.09546033 -0.10162609 -0.067383714 0.2760708
-0.22114244 0.306363 -0.14779097 0.15450455 0.33738536 -0.09519501 -0.25000927 -0.1381417
-0.23352447 0.43650293 -0.17761807 -0.26476872 0.08860274 0.26911154 -0.008508101 0.16552445
-0.15956604 0.038821306 0.23609933 0.41979253 -0.1594631 -0.17708832 -0.04676858 0.11468154
0.2582598 0.033706985 0.11728019 0.2976877 0.11704191 0.033207726 0.12981488 0.18311465
0.23205006 0.033198413 -0.07271305 0.47206423 -0.12871775 -0.3879581 0.32355154 -0.36357296
-0.3161404 0.43059376 -0.03290906 0.07178027 0.09216586 0.1910523 -0.1673076 0.115942165
-0.19970715 -0.1641071 0.080122046 0.15008563 0.14536975 0.26988053 0.19518316 0.18781157
0.21694285 0.20816529 -0.07590869 0.14298622 0.0108763175 0.0115345 0.19800477 -0.16340886
-0.2067787 0.4224414 -0.12613037 -0.20138589 0.18330958 -0.114665315 -0.3015019 0.1277555
0.13592736 0.10772943 -0.17091705 -0.1154073 0.22462304 -0.09136659 0.35628042 -0.15994991
0.037583075 -0.0061459886 0.32752675 0.03380813 -0.018426998 0.38662905 -0.08444723 -0.03786595
0.043809917 -0.007896564 0.35269174 0.28120404 -0.053285867 0.25595027 0.45060745 0.36368445
-0.064293675 0.52329844 0.03139353 0.27512625 0.13188729 0.17065996 -0.098219104 -0.3217087
-0.09567932 0.35200763 0.375385 -0.30706245 0.13954143 -0.062187616 0.32042348 0.46573937
00000000: ee1e 5cbe f094 393e 31d3 b2be 6196 4cbe
00000010: 93c3 59be 1be5 b73e a4be c2be 5c5b d7bc
00000020: 3ea9 a63e 070b 2e3e a726 f73c 5a4c d5bd
00000030: 094e 653e 280d 173e eaa6 133e 054b 913c
00000040: c171 9e3e 0080 c13e 1b65 babe acd7 b6bb
00000050: 52fa bbbd 3059 86bb 5a8c fd3d d088 5a3e
00000060: 2d9a abbe 2eef fb3d b35e 443d 5fee 593e
00000070: 2d79 6abd 9b30 90be 9d8b c23e 0ccc 10be
00000080: 2c35 0abd d08e c13d 94fb 523e 3381 0e3e
00000090: 4af5 843d b33e 3d3e 04a8 e23d 648c f8be
000000a0: ecf1 3b3e 78b1 07bd 252b ed3d 3a61 bb3e
000000b0: 89a1 633d 5da7 a7be cc76 de3e b152 2ebe
000000c0: 1941 433e a3b7 5e3e e12f e2bd 441d d33e
000000d0: 3e04 36be eca6 3f3e 95eb 96bd 3f2c 8b3e
000000e0: 96fe b1be 57a4 a23e 1a9a 0ebe fc89 9fbe
000000f0: af0d 0abd 4a76 4ebe ebb8 963c d2b9 d43d
00000100: 01e5 ae3e 7e5f c43d 40af 5e3e 0c9c 3abe
00000110: 48d1 893e b432 cd3e 4d04 c2be d58a b3be
00000120: a27e c13e ba98 9e3e d565 cc3e 503d 803e
00000130: ef7e 81be 8126 b2be b7c1 f3bd 769d 04bd
00000140: 8111 d7bd 0c67 a73e cfa2 a23d 70b1 903e
00000150: 3abd 9e3c 9196 0b3e 0daf e7bd c53a d6bd
00000160: a7a7 7a3d 4dd5 01be cee6 cf3d 6ca4 6cbe
00000170: 663c 5d3d f4b3 bcbe 0e8a e73e 7f9b a73e
00000180: 3942 7d3e 105c 0a3e d323 623e 3f2d 2abe
00000190: ac2d a33d 69a1 1ebd cadf 83be 2e23 233e
000001a0: 8a1e a3bd ff9b aa3e e659 cb3e 830b 963e
000001b0: 30ff aaba 8afe ac3d 4578 333e ddb0 03be
000001c0: 0805 22bd 38df d6bd 7ec2 fc3d 59eb d03e
000001d0: 3e90 8fbe 4a1d 54be a17f e73d d467 b2be
000001e0: 7c76 883e fefd bb3e 800a 6d3e 646e 82bd
000001f0: 52dd 9a3d 284c 70be 8b81 c23d 80ab 20be
00000200: ad75 b73d 250e 2bbe 2b1e abbd f8b7 28be
00000210: 65c3 323e f2fc 843d d78a 9bbe cb0b e4bd
00000220: 8fbb 6fbd 926b e13e 5e68 493e 00a1 0b3e
00000230: b580 c3bd 5721 d0bd 7900 8abd 2759 8d3e
00000240: 2a73 62be 9cdb 9c3e 8456 17be 7136 1e3e
00000250: c6bd ac3e 9af5 c2bd 3701 80be 0575 0dbe
00000260: 0a21 6fbe 507d df3e 83e1 35be c48f 87be
00000270: 5a75 b53d fdc8 893e 9065 0bbc 3e7f 293e
00000280: 4865 23be 1703 1f3d 06c4 713e 0cef d63e
00000290: 4b4a 23be a456 35be 6990 3fbd 28de ea3d
000002a0: a13a 843e 5610 0a3d 9930 f03d 866a 983e
000002b0: abb3 ef3d d304 083d 31ee 043e 6882 3b3e
000002c0: 889e 6d3e 0ffb 073d 94ea 94bd 67b2 f13e
000002d0: 96ce 03be 72a2 c6be 8ca8 a53e 3c26 babe
000002e0: 28dd a1be c976 dc3e a7cb 06bd 8901 933d
000002f0: 74c1 bc3d 37a3 433e af52 2bbe 1673 ed3d
00000300: 0880 4cbe b10b 28be 0717 a43d 0cb0 193e
00000310: cfdb 143e c82d 8a3e 18de 473e ad51 403e
00000320: 4426 5e3e 4829 553e 0476 9bbd fb6a 123e
00000330: 9532 323c 33fb 3c3c c3c1 4a3e a754 27be
00000340: ccbd 53be 3d4a d83e 5228 01be 1a38 4ebe
00000350: 82b5 3b3e a6d5 eabd 755e 9abe 56d2 023e
00000360: 8b30 0b3e 3fa1 dc3d e104 2fbe aa5a ecbd
00000370: 9503 663e 681e bbbd 636a b63e e9c9 23be
00000380: b6f0 193d 4a64 c9bb 96b1 a73e 657a 0a3d
00000390: 37f4 96bc 3ef4 c53e abf2 acbd 5419 1bbd
000003a0: 0772 333d 9760 01bc 0394 b43e faf9 8f3e
000003b0: 4842 5abd ea0b 833e 05b6 e63e d934 ba3e
000003c0: 67ac 83bd e3f6 053f 8196 003d 59dd 8c3e
000003d0: 760d 073e 7cc1 2e3e 1927 c9bd 01b7 a4be
000003e0: 85f3 c3bd 583a b43e 7632 c03e 4a37 9dbe
000003f0: f3e3 0e3e 71b8 7ebd 8c0e a43e 6475 ee3e

arr_5 f4 [16]
0.019734038 0.020248815 0.02290691 0.018561712 0.018239753 0.022098532 0.02173773 0.03174609
0.033767164 0.02934935 0.03098095 0.019733395 0.029067213 0.025399014 0.025891107 0.024969159
00000000: 47a9 a13c d8e0 a53c 46a7 bb3c bb0e 983c
00000010: 896b 953c fb07 b53c 5313 b23c 3008 023d
00000020: 704f 0a3d 0c6e f03c c3cb fd3c eea7 a13c
00000030: 5d1e ee3c 9811 d03c 9619 d43c 1f8c cc3c
